backend/models/widedeep.pt (torch, 535229 bytes, 20 tensors)

embs.0.weight f4 [6, 4]
000000 e9 16 c6 3f 60 6c bf bf 13 27 08 3f 72 7f 69 3f
       1.5475742 -1.4954948 0.5318462 0.9121009
000010 73 d7 41 40 c4 07 9e bf 10 fe 00 3f 85 b0 0a 3f
       3.028775 -1.234612 0.5038767 0.541756
000020 48 58 33 be 44 de ea 3e 7b 45 ce 3f 9e 47 de 3e
       -0.17514145 0.458727 1.6114954 0.43414015
000030 5c c7 57 be 67 3f 0f bd bd 6b 84 bf 20 3c 0b bf
       -0.21072143 -0.034972575 -1.0345379 -0.5438862
000040 89 06 22 bf 1b 55 b4 be e4 a0 01 40 24 35 29 3f
       -0.6329122 -0.3522118 2.025445 0.6609671
000050 43 aa 63 bf 43 4e 46 bf 9c cc 13 bf f0 79 f6 3d
       -0.88931674 -0.7746317 -0.57734084 0.120349765

embs.1.weight f4 [3, 4]
000000 73 45 50 3f 0f 9c a2 bd d6 6e 7a 3f 14 ea 0c 3f
       0.8135597 -0.07939922 0.9782537 0.55044675
000010 11 59 c5 3f 81 e7 8d 3f 8c 50 a5 3f c5 0c b9 be
       1.5417806 1.1086274 1.2915206 -0.36142555
000020 65 2e f3 be 3b f1 91 bf 1c 8c 1f bf b1 85 1b 40
       -0.47496334 -1.1401743 -0.62323165 2.4300349

embs.2.weight f4 [10, 4]
000000 94 b7 01 40 c8 5a e9 be 3c c1 dc 3f ae 2b be 3f
       2.0268297 -0.45577073 1.724647 1.485708
000010 ff 7a 09 bd 48 83 59 bf 74 d3 c1 be 48 7e b5 3f
       -0.033564564 -0.84965944 -0.37856638 1.4179163
000020 8f d3 42 be e7 59 7f 3e 2a f8 e6 be a1 1a 47 3f
       -0.19026016 0.24936639 -0.4511121 0.7777501
000030 e6 09 07 3f b1 02 06 bf cc 92 30 3e 7a e8 06 c0
       0.5274948 -0.52347857 0.17243499 -2.1079392
000040 9c 1a 69 be f1 b4 34 3f a2 18 c3 bf 78 36 d2 be
       -0.22764057 0.70588595 -1.5241892 -0.4105718
000050 a3 7f a7 3f 0d 65 d7 3f 8e 54 0d c0 03 34 a4 be
       1.3085827 1.6827713 -2.2082858 -0.32070932
000060 9b 94 fe be 70 98 c1 bf f2 00 7f bf df 21 4a 3e
       -0.49722752 -1.5124645 -0.9961082 0.19739483
000070 55 59 03 c0 5d fb 6c 3f bc 80 36 bf e0 90 1d bf
       -2.0523274 0.9257105 -0.71290183 -0.61549187
000080 27 80 be 3e 59 56 d6 3f 37 60 06 3e a8 21 41 bf
       0.37207147 1.6745101 0.1312264 -0.7544198
000090 0f 70 7b bd 8c 60 7d bd 17 31 01 40 63 18 8c bf
       -0.061386164 -0.061859652 2.0186212 -1.0944942

embs.3.weight f4 [8, 4]
000000 3c 94 fe bf 6e 81 40 3e de fe a6 3f 3e 64 25 bf
       -1.9888988 0.18799374 1.3046529 -0.6460608
000010 e0 a0 c8 3f 37 a3 2c be d4 c3 14 bf 54 c6 8d bf
       1.5674095 -0.16859137 -0.5811131 -1.107615
000020 f9 81 b1 3e a9 db be 3f 0f ce 83 3f b3 5d 89 3f
       0.34669474 1.4910785 1.0297259 1.073172
000030 d2 ea 20 3f 24 e1 01 3f 49 18 0b 3f 61 bd 36 3f
       0.6285831 0.5073416 0.5433393 0.7138272
000040 37 a2 f7 3e 6d c4 23 3f 09 b2 4f bf 75 2f aa 3f
       0.48365948 0.63971597 -0.81131035 1.3295733
000050 80 94 91 be 2a 1d e4 bd 1a f3 85 3f 22 d3 a0 3c
       -0.2843361 -0.11138375 1.0464814 0.019631926
000060 5b de 92 be 0d bb 0b 40 20 1e 37 3f 5f b4 a8 be
       -0.2868527 2.1832917 0.7153034 -0.32950112
000070 69 c7 07 3f 5e 93 8a bf b0 47 0e c0 56 7e 2c 3f
       0.5303865 -1.0826223 -2.2231255 0.67380273

embs.4.weight f4 [26, 6]
000000 aa 77 a4 bf 82 60 74 bf 86 e4 17 3f 43 26 2f c0
       -1.2849019 -0.9545976 0.59333074 -2.7367103
000010 cd 05 3a bf 16 be 3e 3f 84 cd f0 3e 66 c2 94 3d
       -0.726651 0.745088 0.47031796 0.07263641
000020 8c c7 df 3d 6b 85 b5 bf 8e 3b cb 3f 54 be 1b bf
       0.109267324 -1.4181341 1.587755 -0.6083729
000030 38 08 12 3e 7e 8e 67 be ef 93 84 bf 4e ed 8b 3e
       0.14260948 -0.2261295 -1.0357646 0.27329487
000040 ea 52 22 c0 46 4b f8 bd 09 d2 c4 3f 47 6e 24 c0
       -2.5363107 -0.12123732 1.5376598 -2.5692308
000050 5a 28 01 40 dc d0 b3 bf 85 46 85 bd 79 45 03 be
       2.0180879 -1.4048114 -0.06507591 -0.1281947
000060 c3 24 b3 bf ef e5 3c 3f 74 1a d3 bf d7 ff b8 3c
       -1.3995594 0.7378835 -1.6492448 0.022582931
000070 1c c1 a7 3f 0e 42 81 bf 38 61 61 c0 a6 df b5 3e
       1.3105807 -1.0098283 -3.5215588 0.35522193
000080 c6 d9 88 bf d1 6d 3c 3f 9c 19 87 bf 5a c9 95 3f
       -1.0691459 0.73605067 -1.055469 1.1702073
000090 f4 a9 06 40 9a 34 35 3f 71 31 0a bf 56 42 26 bf
       2.104123 0.7078339 -0.5398169 -0.6494497
0000a0 75 7f 25 bf 5e d8 1b be 89 ac cb be 14 30 44 bf
       -0.6464761 -0.15219256 -0.3978007 -0.7663586
0000b0 84 24 be 3e 9b f1 91 bf 1f fd ca 3f f7 61 a5 bf
       0.37137234 -1.1401857 1.5858496 -1.2920521
0000c0 8a 85 15 3f 67 b5 98 bc 50 e1 58 3f 46 cb c6 bf
       0.5840689 -0.018641187 0.847188 -1.5530784
0000d0 96 e6 81 bf 12 1e 7b bf 3f 54 a4 bf 7c de df bf
       -1.0148494 -0.9809276 -1.283821 -1.7489772
0000e0 bf a2 31 bf 9a 7d 02 3f ae c0 82 3e d8 81 43 3f
       -0.69388956 0.509729 0.25537628 0.7637
0000f0 53 5b 36 bf 61 e5 49 3f 24 18 72 be e3 cc e4 be
       -0.712331 0.7886563 -0.23642021 -0.44687566
000100 60 8f a5 be 19 79 8d bf 66 c3 48 3f 43 14 5e 3f
       -0.3233595 -1.1052581 0.78423154 0.86749667
000110 f8 58 74 bd 44 16 8d bf 69 9d b3 bf 1a 38 78 bf
       -0.05965516 -1.102242 -1.4032413 -0.96960604
000120 89 22 f7 3e 31 5d 46 bf 73 25 24 bf e1 00 a7 bc
       0.48268536 -0.7748595 -0.6411964 -0.020386161
000130 79 12 a0 3f 78 08 9b bf 03 eb bd bf c3 f7 62 be
       1.2505637 -1.211196 -1.4837345 -0.22164826
000140 0f 02 0c bf 4a 95 7c be 5f d8 0d be de 99 e8 be
       -0.5469064 -0.24666324 -0.1385207 -0.4542989
000150 34 05 f1 3e 9f 9b 82 bf 75 45 22 3f 54 24 5b bf
       0.47074282 -1.0203742 0.63387233 -0.8560231
000160 72 5f bf 3f 9d 1f 29 bf 73 4b 17 bf 6b 5a 8a 3e
       1.4951003 -0.66063863 -0.590995 0.27022108
000170 49 c4 3a 3f c4 20 c4 3f 35 60 96 bf 23 8d 9d 3f
       0.7295576 1.5322499 -1.174811 1.2308697
000180 e6 e0 fa be 56 94 a6 3e 50 ab 8f bf db 0f 8b bf
       -0.4899971 0.32535046 -1.1224155 -1.0864214
000190 30 c4 d7 be ea f1 8a 3e e7 5c 9c bf a6 c5 3e bf
       -0.42141867 0.2713769 -1.2215852 -0.7452034
0001a0 4b a1 52 bf 2c 95 3f 3f 77 17 8b bf f8 8e 9b 3f
       -0.82277364 0.74836993 -1.0866536 1.2153006
0001b0 1f 07 fc 3f 4e f3 f3 3d e2 3a a2 3f ad 2b e2 bd
       1.9689673 0.11911641 1.267422 -0.11043487
0001c0 cb a9 52 3f d3 de df 3d ed d5 77 bf a6 36 26 bf
       0.82290334 0.10931172 -0.968108 -0.64927137
0001d0 28 5a 7f bf d7 d1 dd bd 3b 5b 5b bf 0d 69 8a 3e
       -0.9974694 -0.108310394 -0.8568608 0.27033272
0001e0 c1 d9 67 3e 7d b6 24 3f 82 a1 cc bf f8 87 1b 3f
       0.2264166 0.64340955 -1.5986788 0.60754347
0001f0 cf 41 3a 3f 3e fd 88 bf d3 87 55 3f 52 34 d0 be
       0.72756666 -1.0702283 0.83410376 -0.40664917
000200 f8 84 d9 bf 54 33 e6 3a 0f 2e 88 bf 48 b5 97 3f
       -1.6993704 0.0017562904 -1.0639056 1.1852198
000210 80 34 dd be 55 75 9e 3f cf ba 12 3d 9e 47 33 bf
       -0.43204117 1.2379557 0.035822686 -0.70031154
000220 5a 19 b1 be be 47 be be 43 e7 74 be 18 35 85 bf
       -0.34589654 -0.3716411 -0.23916344 -1.0406828
000230 40 f6 62 3f 19 60 1d 3f ec ed 6f be 94 3b 27 3e
       0.88657 0.6147476 -0.23430604 0.16331321
000240 fc 60 22 be 06 92 ee 3e 1c 7c e5 3e 2d f9 02 bf
       -0.15857309 0.46595782 0.4482125 -0.5116146
000250 e5 48 77 3f 03 5b 1f 3f b0 e4 e9 3e 22 5f 03 3f
       0.96595603 0.6224825 0.45682287 0.51317036
000260 cb cd 8c bd 85 73 78 3f e7 64 3c 3f 36 ff cd 3e
       -0.068751894 0.9705127 0.73591465 0.40233773

embs.5.weight f4 [17, 5]
000000 40 42 f7 be f4 11 8f 3f 0d d7 75 3f 12 c4 2a 3f
       -0.48292732 1.1177354 0.96031266 0.6670543
000010 3a c4 f7 be 3e f7 19 bd 6f 18 2c 3f 9e 26 aa be
       -0.48391896 -0.037589304 0.6722478 -0.33232588
000020 41 8e 6d 3f 96 55 3f 3e a7 88 23 3f 1d 70 42 3e
       0.9279519 0.18684992 0.6388039 0.1898808
000030 26 f3 99 3f d9 9b ef 3f 0a 03 58 3f db 6b 95 bf
       1.2027328 1.8719436 0.8437964 -1.167354
000040 16 ca 07 3f 6f dc 46 3f 9a 38 37 bf 5c db 06 3c
       0.53042734 0.77680105 -0.7157074 0.00823101
000050 6c d4 94 3f fd 90 45 bf 40 32 2d be 2c 8c 4d bf
       1.1627326 -0.7717436 -0.169137 -0.8029201
000060 12 d7 80 bf c0 af df 3e 0e 2b b6 be b5 43 50 bf
       -1.0065634 0.43688774 -0.35579723 -0.8135331
000070 dd 35 4f 3d de 88 29 3e fd 36 12 bf 88 a2 95 be
       0.050588477 0.16556117 -0.57115155 -0.29225564
000080 4b a5 9e bf 08 1e 02 c0 f3 e2 3a 3e c4 eb 10 bf
       -1.2394193 -2.033083 0.18250637 -0.5660975
000090 5a d0 d5 3f da 6d 72 3e 5b 67 49 3f a6 4b 47 be
       1.6704209 0.23674718 0.7867333 -0.19462451
0000a0 ab 68 25 c0 9b c6 72 bc 87 d5 48 bf b5 7f ee 3c
       -2.5845134 -0.014817859 -0.78450817 0.02911363
0000b0 b2 ae 10 bd 7d ab a7 bf 32 6b ea be 84 90 41 3f
       -0.035322852 -1.3099209 -0.4578491 0.7561114
0000c0 da 14 b2 be fd d4 c4 be c5 3d 29 bf 15 ff df be
       -0.34781533 -0.38443747 -0.6610988 -0.437493
0000d0 c8 d5 bf be 68 1b fb bf b2 7d 30 3f 04 a5 85 3f
       -0.3746779 -1.9617739 0.68941796 1.0440984
0000e0 33 01 8e bf 54 2e 99 bf f2 65 79 bf 6c 1e c2 bf
       -1.1094116 -1.1967263 -0.9742118 -1.5165534
0000f0 31 14 c5 bf d0 3c d5 3f 29 fd 2a bf 39 d5 a1 bf
       -1.5396787 1.6659184 -0.6679254 -1.2643195
000100 14 ce 9b bc 0d d7 15 3f 83 b5 54 bf 1e 01 79 3c
       -0.019019164 0.58531266 -0.83089465 0.01519802
000110 6c 61 42 bf d9 7d 3d be fd f0 26 40 14 35 96 bf
       -0.75929904 -0.18505038 2.6084588 -1.1734948
000120 81 ea db 3f 46 43 27 bf bd a6 9b bf 90 91 a4 3e
       1.718094 -0.65337026 -1.216026 0.32142305
000130 18 a8 17 bf 1b 2a 0d 3f 01 67 c6 be 7c 4d 73 bf
       -0.59240866 0.5514237 -0.3875046 -0.95040107
000140 e8 88 d0 be 1c 66 3d 3f 11 66 b0 3f dd 51 fe bf
       -0.4072945 0.7398393 1.3781148 -1.9868733
000150 a4 9e 3d 3d
       0.04629387

embs.6.weight f4 [18, 5]
000000 20 18 af 3e e8 6d ba bf 05 26 a9 bf 9e 8f 3a 3e
       0.34198093 -1.4564791 -1.3214728 0.18218848
000010 2a 43 1e bf 81 d9 a2 be 15 79 3c bf c6 62 a3 3f
       -0.61821234 -0.31806567 -0.73622257 1.2764518
000020 0e db 0f 40 d9 a2 4c bf bd c2 2d 3f 86 90 a3 bf
       2.247745 -0.79935986 0.6787527 -1.277848
000030 63 d7 a5 bf 85 ae e8 3e 4e 2e 00 40 e6 a6 8c 3f
       -1.2956356 0.45445648 2.0028262 1.0988433
000040 1f 2a a8 3e d3 36 e7 bd 8f 25 85 3d 83 05 9e 3f
       0.32844636 -0.11289754 0.06501304 1.2345432
000050 f3 d3 b0 bf 97 da 16 be fb 2d 61 3f 5e c6 9b 3e
       -1.3814682 -0.14731823 0.87960786 0.3042478
000060 1a e4 4f 3d 6f 49 d3 bf 1e 6e 3b 3f 70 69 93 3f
       0.050754644 -1.6506785 0.732149 1.1516552
000070 92 db 0f 40 ed 3f 6a bf 67 c1 2d bf 26 73 0a bf
       2.2477765 -0.91503793 -0.67873234 -0.5408195
000080 9f 82 98 3f 25 0b da 3e 6f 05 2d bf c4 b4 34 3f
       1.1914862 0.42586628 -0.67586416 0.70588326
000090 90 89 0a bf e2 68 13 40 bd 40 8e 3f 76 78 88 3f
       -0.54116154 2.3032765 1.1113507 1.0661762
0000a0 77 24 18 3e 71 e0 2b bf 47 77 0f 40 74 ad 41 3e
       0.1485766 -0.67139345 2.241655 0.18913823
0000b0 23 c3 1d 3f 00 8d 88 3f 57 dd 79 3f f2 ae bc bf
       0.6162588 1.066803 0.9760336 -1.4740889
0000c0 49 b5 7e bf 0e 3c b2 bd 2e 3c 88 3f ff fd 82 bd
       -0.9949537 -0.08702861 1.0643365 -0.06396102
0000d0 0d 47 44 3f 14 76 e2 bd 02 1e 7b 3e ad b4 16 bf
       0.76670915 -0.11057678 0.24523166 -0.5886944
0000e0 b6 94 94 3f e6 9f 37 3e e3 a3 4c 3f 92 09 c8 bf
       1.1607883 0.1793209 0.7993757 -1.5627921
0000f0 75 31 1e bf bf 19 2b bf 75 e4 88 bf aa 92 3e bf
       -0.61794215 -0.6683616 -1.069472 -0.7444254
000100 49 42 31 bd f5 41 3b bd d1 fb 49 3e 34 7b 84 be
       -0.043276105 -0.0457172 0.19724967 -0.25875247
000110 34 31 54 be f5 48 19 3f 75 01 00 bf 44 55 c2 bf
       -0.20721895 0.5987695 -0.50002223 -1.5182271
000120 19 bc f3 3e bd 87 3b 3e d6 7e 9d 3f 6e 33 74 3e
       0.47604445 0.18313499 1.2304332 0.23847744
000130 17 84 98 3e 70 cb ca bf 8e d3 cd 3e b0 77 c9 3f
       0.29788277 -1.5843334 0.40200466 1.5739651
000140 1a 99 79 3f be 62 42 3e df 58 39 c0 8a 68 07 3e
       0.9749924 0.1898298 -2.8960493 0.13223472
000150 e7 f7 9a bf a4 7e c2 3e 08 04 64 ba c8 82 1b bc
       -1.2106904 0.37987244 -0.00086981105 -0.00949163
000160 37 5a a0 be d1 93 16 bf
       -0.31318828 -0.588193

embs.7.weight f4 [68, 9]
000000 6d cd 8e bf 73 ca f3 be cf dd 19 bf 74 1b 12 3e
       -1.1156441 -0.47615394 -0.6010408 0.14268285
000010 8e b6 db 3e 60 31 6f be 48 c9 ed 3f 5a 79 88 be
       0.42912716 -0.23358679 1.8577051 -0.26655084
000020 3b 3a 98 3f 8b c0 30 3f 03 35 69 3e c4 51 14 3f
       1.189277 0.690438 0.22774129 0.57937264
000030 5f e4 7d bf d7 e5 52 bf 8f 4e 7f bf a6 0c 2b bf
       -0.9917659 -0.8238196 -0.99729246 -0.66816175
000040 90 9f 82 3f 7c 15 62 3e 18 5a 3f 3e 83 cd 0c bf
       1.0204945 0.22078508 0.18686712 -0.55001086
000050 a6 cc 79 3e 96 cc 36 bf 13 07 91 3f e6 d9 1d 3f
       0.24394473 -0.71405923 1.1330284 0.6166061
000060 fb 51 06 bf cc 8e 5e 3f b5 10 89 3e cf bd 54 bf
       -0.5246884 0.8693664 0.2677056 -0.83102125
000070 fb c4 b0 3f 0f a5 6a bf 6a e4 ad be 14 06 f7 3e
       1.3810114 -0.9165811 -0.3396333 0.48246825
000080 73 39 f5 3e b5 b7 0e 3f 97 00 c1 be 40 b1 d8 3f
       0.47895393 0.55749065 -0.37695763 1.6929092
000090 ba fc b3 3e 3f f2 40 3e 8e f3 6f bc c4 f2 a9 3d
       0.35153753 0.1884241 -0.01464547 0.08298257
0000a0 a5 0d af 3d 32 c9 1e c0 24 e4 4b bf 98 c9 3d bc
       0.08547524 -2.48103 -0.7964499 -0.011583708
0000b0 04 10 78 bf 8c 32 bc bf fb 23 0d 3f a8 a6 63 bf
       -0.9689944 -1.4702926 0.55133027 -0.8892617
0000c0 ba 47 b1 3e fe 56 20 be 45 a9 9c 3f 63 0e 36 bf
       0.34625036 -0.15658185 1.2239157 -0.711157
0000d0 4f 77 85 3c 96 b0 0b 40 bf f5 be 3e 27 a1 96 3e
       0.016292242 2.182653 0.37296864 0.29419824
0000e0 17 7b 20 bf 74 51 5c bf cc 83 b9 bf fb fc 65 3f
       -0.6268782 -0.8606179 -1.4493346 0.8983914
0000f0 22 91 1a be 69 75 2c bf d6 39 81 3f 8b 67 82 be
       -0.15094426 -0.67366654 1.0095775 -0.25469622
000100 8a 51 40 bf 35 08 87 3e 9f 55 d1 bf 11 6b 38 40
       -0.7512442 0.2637345 -1.6354254 2.8815348
000110 06 e5 1a be ae 05 59 3e 42 8d 1b bf c7 38 63 3f
       -0.15126428 0.21193573 -0.6076242 0.8875851
000120 75 12 22 bf 32 9e 14 3e 28 85 f1 3f 79 b7 09 bf
       -0.63309413 0.14513472 1.8868761 -0.5379558
000130 39 41 84 bd 06 45 cd bf 58 27 7f 3e 34 7d 94 be
       -0.06457753 -1.6036689 0.24917352 -0.29001772
000140 76 0f 23 be 4c 66 4c 3e 14 4b 42 bf be 83 1e bf
       -0.15923867 0.19960898 -0.7589581 -0.6191977
000150 1a 8a c6 bf 08 de b0 3f ad 59 1a 3f 88 c7 9c 3f
       -1.5510895 1.3817759 0.60293084 1.2248392
000160 7e 7e 74 3f d2 ed ba 3f 25 12 93 3e 72 0a d6 be
       0.9550551 1.4603827 0.2872478 -0.41804844
000170 c5 f4 cc 3e 21 bc 13 3f 7e 21 62 3f aa a0 56 be
       0.40030494 0.57708937 0.88332355 -0.20959726
000180 cb 29 33 bf 1c d5 5c bf ad c5 f2 be 89 94 bc 3e
       -0.69985646 -0.8626268 -0.4741644 0.36832073
000190 fb 27 9b 3e a8 4b 11 bf 18 e3 de 3c 12 dc 8e 3f
       0.3030394 -0.5675607 0.027207896 1.116091
0001a0 2d e9 49 3f ee 3e c6 3e 5d 52 9e 3e 52 e2 e9 bf
       0.78871423 0.38719887 0.30922213 -1.8272192
0001b0 6b 26 cf bf 65 b8 95 be a0 09 77 bf b7 0e 71 3f
       -1.6183599 -0.29242244 -0.9649906 0.9416308
0001c0 4a 63 f1 3d f0 c6 9e 3e d5 d2 ef bd 82 73 b6 3b
       0.11786516 0.31011152 -0.11710135 0.005567969
0001d0 be 46 81 bf 84 80 bc 3e 1a a3 ae 3f da 0b cc 3f
       -1.0099714 0.368168 1.3643525 1.5941117
0001e0 31 95 0a 3f 5f 80 6e 3e 8c 2e a6 be 9c ed a6 3f
       0.541339 0.23291157 -0.32457387 1.3041263
0001f0 a6 32 9c 3e 43 98 83 bf 1f 8e ec be fe c9 9d be
       0.30507392 -1.0280842 -0.4620218 -0.3081817
000200 a7 98 1d bf e3 2a fd 3e 04 f0 a4 bf 5f 19 bd 3e
       -0.61561054 0.49446782 -1.2885747 0.3693342
000210 fe 01 cc bf 85 19 fa 3e a1 9a 40 bf a2 38 55 bf
       -1.5938108 0.48847595 -0.75235945 -0.8328954
000220 e9 d6 85 bf aa f7 40 bf c5 ef c0 bf 47 b4 b5 3f
       -1.045621 -0.75377905 -1.5073172 1.4195641
000230 43 48 d5 3f 07 28 b2 bf 4f b8 6f 3f 85 da 7c 3f
       1.6662678 -1.3918465 0.9364061 0.98770934
000240 20 2b 44 3d f9 f3 8f 3f eb 5d 2d 3e 62 39 d8 be
       0.04789269 1.124633 0.16930358 -0.4223128
000250 5d 9e bb bf 09 13 dc bf 6a 65 e6 be 65 b3 25 3f
       -1.4657704 -1.7193309 -0.44999248 0.6472686
000260 45 dd e1 be d0 db bd 3e 3f 2a 9d 3e 4a c5 20 bd
       -0.44114128 0.37081766 0.30696294 -0.03925065
000270 73 53 50 bf 7c 34 a7 3f 40 c8 69 3f 71 29 83 3f
       -0.81377333 1.3062892 0.9132118 1.0247022
000280 cc b0 a5 bc 27 92 3b 3d 3b 35 11 be ab d7 58 bf
       -0.020225905 0.04579368 -0.14180462 -0.84704083
000290 71 1c bf bf db 23 89 bd 8c 38 a4 3f 7c 41 81 3f
       -1.4930555 -0.06696292 1.2829757 1.0098109
0002a0 f3 b5 e6 3e b2 41 98 bf 7e 6d c1 3e 3d ed 24 3f
       0.4506069 -1.1895049 0.37778848 0.64424497
0002b0 3c a7 89 3e ae 63 6c 3f 34 61 8f 3e 3a 25 c5 3e
       0.26885402 0.923396 0.28003848 0.38504964
0002c0 ca 1d d7 3f 5c c0 4a 3e ef 12 ea bf ca 67 93 bd
       1.6805966 0.19799942 -1.8287028 -0.071975306
0002d0 6e 45 2d bf 7f 78 18 3f 62 64 d1 3e b8 d0 26 3f
       -0.67684066 0.5955886 0.40896899 0.6516223
0002e0 4d 4f ae bf 3c f4 c2 be d1 cc d4 3e bd 8f 9a bf
       -1.3617951 -0.3807696 0.41562513 -1.2075115
0002f0 11 37 ca bf ac 4b cb 3f f7 c9 81 bf 6d 32 39 3f
       -1.5798055 1.5882468 -1.013976 0.7234257
000300 8f d2 a3 bd 56 a3 8e bf 98 d7 20 3f 10 07 3a 3f
       -0.07999145 -1.1143596 0.6282897 0.72667027
000310 2e d2 df be 5e 73 3b 3f 95 1d 0d bf b5 9a 09 3f
       -0.43715042 0.7322291 -0.55123264 0.5375169
000320 89 8a 41 3f e3 7f 91 bf 23 60 02 3f 93 71 51 bf
       0.7560201 -1.1367153 0.50927943 -0.81813926
000330 30 0a 5b be b5 c0 19 bf 10 c1 74 bf 4c 75 8a 3f
       -0.21390605 -0.6005967 -0.9560709 1.0817046
000340 15 61 b6 3e 8e d6 8e 3f 0c 7f a3 3e 9e 71 e6 3a
       0.35620943 1.1159227 0.31932867 0.0017581468
000350 f8 2c 6e bf de 20 05 bf 41 f3 04 bf e0 3f c0 3f
       -0.93037367 -0.52003276 -0.51933676 1.5019493
000360 73 2e 83 3f c3 18 54 3f f4 a4 58 3f 86 31 35 3f
       1.024855 0.82850283 0.846267 0.7077869
000370 b9 e2 fc 3e 90 a7 34 3f b8 d4 e0 bf e6 74 02 be
       0.49391726 0.7056818 -1.7564917 -0.12739906
000380 c1 7b 96 3f 6a 0d a6 3e d5 29 31 bf f4 45 8a 3f
       1.1756517 0.3243211 -0.69204456 1.0802598
000390 62 34 c9 be eb a7 9e 3f 39 25 87 3e 35 ca 8e be
       -0.39297777 1.2394994 0.26395586 -0.27888647
0003a0 28 58 e4 3e 1e 96 39 3d b2 a9 f4 bd 35 d4 ba 3f
       0.44598508 0.04530918 -0.11946429 1.459601
0003b0 05 2f 2f 3e c8 9d 72 bf a2 83 28 c0 b7 86 79 3f
       0.1710778 -0.94772005 -2.6330342 0.97471184
0003c0 21 38 d8 bf 45 b2 81 be ec 27 92 3f 37 ad ea be
       -1.6892129 -0.2533132 1.1418433 -0.45835277
0003d0 ff d3 0d bf d0 3a cd 3f 75 9b 13 3f 81 49 71 3f
       -0.55401605 1.6033573 0.57659084 0.94252783
0003e0 d5 a7 b1 3e e0 8a 13 3f 4e 28 e3 3f c6 aa d4 3f
       0.34698358 0.5763378 1.7746675 1.6614616
0003f0 be 0c 2e c0 ab 6d 9a 3f 1f 1e 90 3e 51 fb 73 3f
       -2.7195277 1.2064718 0.2814798 0.95305353

embs.8.weight f4 [681, 27]
000000 08 ab 64 be 47 77 75 bf f6 87 e4 bf 35 8a e9 be
       -0.22330868 -0.9588513 -1.7853992 -0.45613256
000010 8d ab 34 3e 48 0a a3 bf 2c 87 a0 bf d9 82 5a 3f
       0.17643566 -1.2737513 -1.2541251 0.8535591
000020 8d ca 13 bf c4 9b 53 bf 0e c1 1a bf f2 04 30 3e
       -0.5773094 -0.82659554 -0.6045083 0.17189386
000030 36 53 99 bf b5 cd a4 be b8 04 c7 3e c7 37 0b 3f
       -1.1978519 -0.32188192 0.38870788 0.54381984
000040 9e d7 a2 bf 54 af 09 be 3a 77 64 3b 0a 65 9b 3f
       -1.2722051 -0.13445789 0.0034861104 1.214021
000050 99 ba 3f 3f 89 2c 7d 3d b8 01 55 bf 30 05 31 bd
       0.748941 0.06181005 -0.8320575 -0.043217838
000060 b9 9e ac bf 3a 58 cb 3e e0 09 db bc b5 09 ba 3f
       -1.3485938 0.3971575 -0.026738107 1.4534212
000070 8e 91 4d bf 9a 8d 93 bf 4b e6 50 bf 43 6c d6 3f
       -0.80300224 -1.1527588 -0.816014 1.6751789
000080 12 a1 51 bf 89 be e5 bf fd 1a 80 3f d8 3e 47 bf
       -0.818864 -1.7948772 1.0008236 -0.77830267
000090 c3 0a 68 3e 21 7f d6 bf b6 66 ca 3e dd 7e ab bc
       0.22660355 -1.6757547 0.39531487 -0.020934517
0000a0 77 b0 b9 3f ad 9f ae bf ce db 1c bf a4 1c 97 bf
       1.4506978 -1.3642479 -0.61272895 -1.1805615
0000b0 9b 19 b2 3e ca b5 26 bf 9c b5 c6 bf a2 89 e7 bf
       0.3478516 -0.6512114 -1.5524173 -1.8088877
0000c0 f9 ac d0 3f 8f 8d 0f bf 1d 6c 17 3e 92 4d 89 be
       1.6302787 -0.56075376 0.14787336 -0.26816994
0000d0 45 7e af bf 80 1a dc bd 01 a0 46 3f bf 60 21 be
       -1.3710409 -0.10747242 0.77587897 -0.15759562
0000e0 5e 30 9b bf 4d b3 0d c0 36 c4 2e 3f e2 46 46 bf
       -1.2124135 -2.2140687 0.68268144 -0.7745191
0000f0 8a bd b1 bf 84 8a a3 be 60 ae 97 be 90 82 0e bf
       -1.3885968 -0.31941617 -0.29625225 -0.5566797
000100 54 a1 0c 3e 78 c3 7b 3f 55 cc 99 3f f9 a8 49 3d
       0.13733417 0.98345137 1.2015482 0.04923341
000110 11 37 f6 bf 75 e3 79 bd 75 2d f2 3f 64 7a 81 bf
       -1.9235555 -0.061007936 1.8920122 -1.0115476
000120 32 4d a1 3e a2 96 69 bf a5 b0 d1 3f 68 79 8f 3f
       0.31504208 -0.9124547 1.6382033 1.1208925
000130 46 21 4d 3d 9e 26 b4 3f e6 b4 b2 3f f6 f9 08 40
       0.05008056 1.4074285 1.3961456 2.1402564
000140 f2 cb c7 3d 8d a5 3e 3e c6 da 2e be ef e6 38 bf
       0.09755696 0.1861784 -0.17075643 -0.72227377
000150 af 3d 0a 40 ce af 24 3e 9f e7 67 bf ac b4 75 bf
       2.1600149 0.16082689 -0.905878 -0.9597881
000160 22 2e 8f bf e2 80 2b 3f 0b 37 16 be 94 c4 46 3f
       -1.1185954 0.66993535 -0.14669435 0.77643704
000170 cd 11 e0 3e 9f 03 18 3f 08 61 d6 3e 3e 25 ea be
       0.4376358 0.59380525 0.41870904 -0.4573154
000180 33 72 db be 22 8d ce be 83 12 81 be 26 80 96 3f
       -0.42860565 -0.4034205 -0.25209436 1.1757858
000190 9c 58 ce 3e 88 c1 c0 bf 9c ad ea be e5 36 01 c0
       0.4030198 -1.5059061 -0.45835578 -2.0189755
0001a0 04 04 30 3f d1 b7 45 3f e1 1d c8 be 34 65 8a bf
       0.6875613 0.77233607 -0.39085296 -1.0812135
0001b0 45 2d 2f be 25 bf bd bd ef 35 e8 be 44 df f1 bf
       -0.17107113 -0.092649736 -0.45353648 -1.889626
0001c0 3f 62 15 3f 14 85 41 bf 88 15 dd 3f 26 7b e3 3d
       0.58353037 -0.75593686 1.7272196 0.11107473
0001d0 74 7e 9a 3f 21 ef e4 be 52 63 17 3f 3d be a1 be
       1.206984 -0.4471369 0.59135926 -0.31590453
0001e0 a1 40 32 bf 8c 3f 78 bf 28 87 68 bf be 23 96 bf
       -0.69629866 -0.96971965 -0.9083123 -1.1729658
0001f0 02 df a2 3e a9 8b aa 3e 8b 53 bb 3e e0 fa 74 3f
       0.31810766 0.33309677 0.36587176 0.95695305
000200 89 31 6a bf d8 13 05 c0 48 f3 cd 3e 41 6a b5 bf
       -0.91481835 -2.0793362 0.4022467 -1.4173051
000210 6b e7 d7 3f 90 93 62 bf 1f dc 75 bd 96 fb d6 bf
       1.6867498 -0.8850641 -0.060024377 -1.6795528
000220 11 47 43 3f 22 43 5c 3f 9f 12 bc be 6e 83 b3 3c
       0.76280314 0.86039937 -0.36732957 0.021913256
000230 80 e7 cf be cd f5 40 bf cf 5a 9c bf 78 b8 93 bf
       -0.40606308 -0.7537506 -1.2215213 -1.154067
000240 97 75 2d bd a3 31 68 bf 69 27 2f be 07 d5 99 3f
       -0.04234847 -0.9070074 -0.17104878 1.2018136
000250 cb 7f 92 bf 63 65 af bf 43 74 f1 be b2 f5 c2 bf
       -1.1445249 -1.3702816 -0.47159013 -1.523123
000260 ae 12 17 be b9 7b 21 3f 3e 83 a5 3f d9 c0 d1 3d
       -0.1475322 0.6307941 1.2930677 0.10241861
000270 4a 61 b6 be c2 3b 92 bf 97 63 16 be af 59 2c bc
       -0.356211 -1.1424487 -0.14686428 -0.010519429
000280 bb 7c 2d 3f 62 db 73 3d 99 2d af 3d ed db 01 3f
       0.6776845 0.05953539 0.08553619 0.50726205
000290 a5 ed 19 bf 24 7a 49 3e 34 d9 8b 3e 8b c2 c1 be
       -0.6012824 0.19675499 0.2731415 -0.37843737
0002a0 3d 3d e9 3e ae 27 8b bf d9 f8 b2 be e1 bb d0 bd
       0.45554534 -1.0871484 -0.3495548 -0.10192085
0002b0 c1 68 1c 3f 96 7a 70 3e a8 89 24 3e 64 6b cc bf
       0.6109734 0.23484263 0.16068137 -1.5970273
0002c0 15 c7 9c 3d d0 8e c7 be e9 11 40 3f 52 9f c0 bf
       0.076551594 -0.38976145 0.7502733 -1.5048621
0002d0 c6 a6 72 3f 49 40 25 3f 69 4a 3b 3f 12 07 5e be
       0.94785726 0.64551216 0.73160416 -0.21682385
0002e0 a6 2a 5e 3f fa 84 fc 3d bc ad 79 bf 5b f9 ec 3e
       0.86783826 0.12330051 -0.9753072 0.46283993
0002f0 cb fe 06 bf 67 88 87 be f8 10 92 3e 84 59 00 3f
       -0.52732533 -0.26471254 0.2852857 0.5013659
000300 85 fb 0e 3f 51 99 8e bf e3 df 7f bf 03 80 d6 be
       0.5585254 -1.1140538 -0.99951 -0.4189454
000310 77 f5 1e 3f 05 74 05 3e f5 56 bd bf ce d3 8a be
       0.620933 0.13032539 -1.4792162 -0.2711472
000320 06 b5 ee 3e eb 58 a9 3f e5 b0 b1 be f1 f0 21 bd
       0.46622485 1.3230261 -0.34705272 -0.03953642
000330 9c 83 1b 40 7a 70 7d 3f b0 fa 11 be 71 1d bd bd
       2.4299078 0.9899975 -0.14255786 -0.09234131
000340 01 80 9c 3f 0f 8e 7a 3e dc df 8e 3e 1f 4e bf be
       1.2226564 0.24468254 0.27905166 -0.3736429
000350 9b bf 90 be f7 7e c7 bf 42 84 30 bf cf 28 d9 3f
       -0.28271183 -1.5585622 -0.6895181 1.6965579
000360 49 0b a5 3f 25 a2 69 bf 4d 68 cc 3e 35 d2 3e c0
       1.2894069 -0.9126304 0.39923325 -2.98158
000370 6b 23 1b bd ff 19 3c 40 52 7f 0a bc 6c 1e ff 3f
       -0.037875574 2.9390867 -0.008453207 1.9931159
000380 82 3b 2e be 60 40 95 bf 9a e2 88 bf 7f 29 11 40
       -0.17014888 -1.1660271 -1.0694153 2.2681577
000390 24 09 1c 3f d7 ab aa 3f 36 e6 bd 3f 47 9b ae bf
       0.6095145 1.3333691 1.483588 -1.3641137
0003a0 b5 61 de 3f 2d 6c eb bc d0 4a 1b 3f de 11 bd 3e
       1.7373568 -0.028738106 0.6066103 0.36927694
0003b0 29 69 3d bf 93 4e cb bf a1 41 c4 be bf f3 3d 3f
       -0.73988587 -1.5883354 -0.3833132 0.7420005
0003c0 60 55 23 c0 ed 4c 7f be df 6a 53 bf 98 91 c5 3e
       -2.5520859 -0.24931689 -0.8258495 0.38587642
0003d0 fa 0f 0e bf 47 cc ba be a1 5d af be 29 fb 8e bf
       -0.5549313 -0.36483976 -0.3425112 -1.1170398
0003e0 7d 8d c5 bf c2 b0 6c bf 72 af 14 c0 a6 a0 56 3f
       -1.5433804 -0.9245721 -2.3232083 0.8383888
0003f0 74 ab 1d bf 84 8c a0 3f 1e 45 65 3f 65 16 50 3f
       -0.6158974 1.2542882 0.8955859 0.8128417

embs.9.weight f4 [704, 27]
000000 94 2f 18 c0 6b 3c 08 3f 6d fa 86 3f 88 27 f6 be
       -2.377904 0.5321719 1.0545174 -0.48077035
000010 d0 42 22 3d 24 e0 e9 be 35 35 3b 3f a0 2c 84 bf
       0.0396145 -0.45678818 0.7312806 -1.0326118
000020 82 1c 47 bc d6 ed 9f bf c7 91 93 3f 9e bb 9e 3f
       -0.012152793 -1.2494457 1.1528863 1.2401006
000030 8a 7b 4b 3e 8c 92 d4 be 2a af a8 bf bf 94 41 bf
       0.19871345 -0.41518056 -1.3178456 -0.75617594
000040 06 4c 8e 3f 79 21 94 be 3b 7e 4c 3f 9b 78 ee 3f
       1.111695 -0.28931788 0.7988011 1.8630556
000050 96 77 d8 3e 2b be a1 be c8 56 35 bf 93 4f 88 bf
       0.42278737 -0.315904 -0.7083554 -1.0649284
000060 2a c6 e3 be 55 ce c2 3e 2c 10 bc be a4 c4 d6 bf
       -0.44487125 0.38048044 -0.36731088 -1.677876
000070 98 5d 72 be 95 fd 71 bf 8c e6 02 c0 18 13 82 3f
       -0.23668516 -0.9452756 -2.0453215 1.0162077
000080 97 5c fa 3e a4 6b 5b bf 61 b5 d8 3e e9 dd ac 3d
       0.48898765 -0.8571112 0.4232588 0.084407635
000090 93 db 8e bf 19 2f b5 3f db 15 cf 3f 33 14 64 3a
       -1.1160759 1.4154998 1.6178545 0.00087005197
0000a0 21 4b 4e 3f fa e8 af 3e 55 36 d6 3e f4 d7 88 3f
       0.8058339 0.34357435 0.41838327 1.0690904
0000b0 59 b0 3a 3f 5a 17 c5 3f 1a ab 23 be 06 73 05 be
       0.72925335 1.5397751 -0.15983239 -0.13032159
0000c0 f5 54 41 be be 6e 17 bd f8 c8 97 bf a8 98 38 bf
       -0.18880065 -0.036970846 -1.1858206 -0.72107935
0000d0 2c 9a 72 bf 21 8f f8 3e 41 6c c6 3c 52 07 c4 bd
       -0.947665 0.485467 0.024221541 -0.09571709
0000e0 38 43 74 bd 75 31 7d be ab a9 88 be 05 4d 35 3c
       -0.059634417 -0.24725898 -0.26691946 0.011065726
0000f0 b2 26 3d 3f b9 4b 04 bf 79 21 01 bf d7 a2 d2 bf
       0.7388717 -0.51678044 -0.504417 -1.6455945
000100 3e 33 64 3f f3 08 ca bf 97 04 5f 3f 8d ff a2 3f
       0.8914069 -1.5783981 0.8711638 1.2734238
000110 89 cb 9c 3f 3e ba ad 3f 22 c5 9c be 3f 7a 90 be
       1.2249614 1.3572462 -0.3061915 -0.28218266
000120 85 08 83 be 08 a7 d1 3f 72 f4 ac bf 22 f6 3c bd
       -0.25592437 1.6379099 -1.3512099 -0.046133168
000130 96 1c 3f bf b1 f0 c3 3e 91 99 25 3f ea 4c 54 be
       -0.74652994 0.3826957 0.6468745 -0.20732465
000140 37 84 b2 bf 35 87 3e bf 1c 46 75 3e 13 60 88 3d
       -1.3946599 -0.7442506 0.23952526 0.0665895
000150 bc e3 ad 3f b1 7b cb 3e 22 2f db bd 7a b4 78 bf
       1.3585124 0.39742807 -0.10702349 -0.97150385
000160 21 ca ba bf 07 7e 96 3f 62 6a 0f 40 3f b5 ca 3f
       -1.4592935 1.175721 2.240868 1.5836562
000170 38 4e 57 bf 05 d8 42 bd 74 68 0b 40 74 e1 54 3e
       -0.8410373 -0.047569294 2.1782503 0.20789129
000180 85 04 6a 3d c8 ef 0c bf d9 a7 04 c0 63 9d 26 3e
       0.057133216 -0.5505338 -2.0727446 0.16270976
000190 e2 40 04 3d 4d 15 9f 3f 70 0e a7 3f 87 64 4d 3f
       0.03228844 1.2428375 1.3051281 0.8023152
0001a0 4a 30 c2 bf 46 29 54 3f 26 62 0b bf d4 a5 13 3f
       -1.5170987 0.8287548 -0.5444664 0.5767491
0001b0 4f 48 46 bf 65 43 eb 3f 91 6a b4 bf 41 6b a2 bf
       -0.77454084 1.8379942 -1.4095021 -1.2688981
0001c0 7a 1e 9c bf c2 d8 90 be d4 21 af be d5 53 0b 3f
       -1.2196801 -0.28290373 -0.34205496 0.5442479
0001d0 80 9d 87 bf 42 13 b6 be 14 e8 ac 3f 7b c2 51 3f
       -1.059494 -0.35561568 1.3508325 0.8193738
0001e0 b0 ee b1 3e eb 7f 19 3f 0c 61 c3 3e 1b 16 ba bf
       0.34752417 0.5996081 0.38159978 -1.4537996
0001f0 35 27 9e 3d 5f 4b f2 be 0c 01 9b bf c2 10 97 bf
       0.07722322 -0.4732313 -1.2109694 -1.1801989
000200 5f 9e a6 be 7f 1b 19 3f a9 9c 41 40 fa 85 fd 3f
       -0.32542703 0.5980758 3.0251868 1.9806511
000210 29 51 e4 bf 3d d2 85 bd 4d cc 72 3e c7 c5 d2 3d
       -1.7837268 -0.065342404 0.23710747 0.10291629
000220 f9 9d 16 3f a3 f4 de 3f de c8 7f 3e 93 90 6b bf
       0.588348 1.7418407 0.24978969 -0.9201748
000230 15 b3 0d bf 1d 2b de 3e 6e 6b 24 3f 55 06 21 3e
       -0.5535138 0.43392268 0.64226425 0.15725072
000240 39 9e 02 3f 5f c2 86 bf ac a1 bd 3f 51 3e c5 be
       0.5102268 -1.0528067 1.4814963 -0.38524106
000250 ed aa 77 3f ae fc a7 3f fc 37 4b be 11 76 5a bf
       0.9674519 1.3123987 -0.19845575 -0.85336405
000260 32 7e b1 be d7 8a 14 be e7 e4 82 3e c1 e6 b8 bd
       -0.34666592 -0.14506088 0.25565264 -0.09028388
000270 a9 9f a4 3f 9a 22 d6 bf ba 1a 19 bf 36 fd fb 3e
       1.2861224 -1.672931 -0.59806406 0.49216622
000280 10 17 4a 3f 6d 45 2b bf c4 95 41 3f 97 68 62 bf
       0.7894144 -0.6690281 0.7561915 -0.8844084
000290 01 9e 7c bf 27 f4 c8 bf 1c 0d f1 3e b1 ee 32 3e
       -0.98678595 -1.5699509 0.47080314 0.17473866
0002a0 16 3d 4f bf 82 c2 2d 3f 5f 35 03 3e 26 ff 80 3f
       -0.80952585 0.6787492 0.12813328 1.0077865
0002b0 9f 08 6e be 73 cb 61 bf 43 3c 2c bf e7 1f 64 3e
       -0.23245476 -0.88201064 -0.6727945 0.22277795
0002c0 af eb 3a 3e 80 f6 0c bf 5f 52 b5 bf 63 b0 73 bf
       0.18253969 -0.5506363 -1.4165763 -0.9519102
0002d0 8c 4f d0 3f 40 f8 a4 3f 81 13 1d c0 9c 1d 68 3f
       1.6274276 1.288826 -2.4543154 0.9067018
0002e0 3e 2c ca bd 9f 72 8b be ad 80 6c 3e 2a ca 8d 3f
       -0.0987172 -0.27235886 0.23095961 1.107732
0002f0 69 27 dc bd 8d 2e 7d bf f9 40 5f 3f 6d 5b cd be
       -0.107497044 -0.98899156 0.87208515 -0.40108815
000300 01 63 49 40 7a 2e ee 3f 71 24 2c bf 53 89 1a 3f
       3.1466677 1.8607934 -0.67243105 0.6036579
000310 c3 32 d0 3f ec 31 43 bf fa 9b 26 3d 2f 24 2f be
       1.6265491 -0.7624805 0.040676095 -0.17103647
000320 8f fa cd 3d bc b0 57 3f 09 2f 05 40 da 4a 21 bf
       0.10057556 0.8425405 2.0809958 -0.6300484
000330 b7 3b 1b 3f 8c b7 e1 bf 7d 1f 81 bf 86 5d 8e 3f
       0.6063799 -1.7634139 -1.0087734 1.1122291
000340 6a a5 46 c0 50 7f 00 3f ce 1c ec 3e fd 90 e1 bf
       -3.103846 0.50194263 0.46115726 -1.7622372
000350 0e 54 47 3f 3a bc 11 40 62 d0 a9 be f9 eb 87 3f
       0.7786263 2.2771134 -0.33166796 1.0618888
000360 55 76 a2 bf a7 97 e8 be 8c f7 85 bf 7e 25 00 40
       -1.2692362 -0.45428202 -1.046617 2.0022883
000370 ed 55 60 be 1b cd 24 3f 76 3c 8c bf 5b 1f 30 bf
       -0.21907778 0.64375466 -1.0955951 -0.68797845
000380 13 02 14 be 71 39 1c c0 d2 b3 72 3e 9e 0b 62 3f
       -0.14453916 -2.441006 0.23701409 0.88298976
000390 2c 0d cb 3f 26 7c 89 3f 37 53 84 be db 03 95 bd
       1.5863395 1.0741012 -0.25844738 -0.07276126
0003a0 8f 19 42 bf 89 73 f6 bf eb ec 8d bf f2 ce 32 bf
       -0.7582025 -1.9254009 -1.1087927 -0.69847023
0003b0 fe 93 4b 3f f4 d5 e7 bd 79 ad 8f 3f 16 3e ca bf
       0.79522693 -0.11320105 1.1224815 -1.5800197
0003c0 0f db bb 3f ce a1 72 3e 9d 04 88 be 9c 5d f8 be
       1.4676226 0.23694536 -0.2656602 -0.48508918
0003d0 ca 14 ff bf 32 a3 66 be f7 dc ae 3f f2 7f ac bf
       -1.9928219 -0.22523192 1.3661183 -1.3476546
0003e0 c1 8c 07 3d b1 bc 0b 40 4b a4 02 3e b5 8b 3e 3e
       0.033093218 2.1833918 0.12757985 0.18607982
0003f0 68 13 26 3b 28 31 9d bf c0 df 6d bf ad 3e 87 bf
       0.0025341157 -1.2280626 -0.9291954 -1.0566002

embs.10.weight f4 [750, 28]
000000 7d 58 c1 bf 6d 17 32 bf 76 8d 5a bf 1a 61 32 bf
       -1.510513 -0.69566995 -0.853721 -0.69679415
000010 00 04 29 3f 67 cf e6 3f 5d e2 8a be 95 fe 27 3f
       0.6602173 1.8032044 -0.27125826 0.65622836
000020 0a b1 55 3f 59 6c 9e 3e 08 6d b8 bb 8e 89 05 bd
       0.83473265 0.30942038 -0.005628232 -0.032601885
000030 fa e0 6a 3f 42 59 07 bd f6 72 df bf 46 5b fe be
       0.91749537 -0.033044107 -1.7456958 -0.4967901
000040 7a 05 19 3f 10 31 30 3e 97 dc c9 be e5 7f 4c bf
       0.5977398 0.17206216 -0.3942611 -0.7988265
000050 b3 22 24 be 48 f1 c9 be 09 b3 1a 40 ad ef 5a bf
       -0.16028862 -0.39441895 2.4171774 -0.85521966
000060 a9 de 49 3f ad 64 80 3f eb 2b c5 be ba b6 91 be
       0.7885538 1.0030724 -0.3851007 -0.28459722
000070 3d e8 8e 3f 3f 78 ad bf 7e 8f 1c bf 44 00 7c 3c
       1.1164623 -1.3552321 -0.6115645 0.015380923
000080 6a 65 66 3f 49 44 9e bd 19 5a d0 3e 5f 92 40 bf
       0.89998496 -0.07727868 0.4069374 -0.75223345
000090 7d 68 99 bf e2 0a 94 bf 69 d6 d9 be fe 1c e7 bf
       -1.1985012 -1.1565821 -0.42546394 -1.8055723
0000a0 e3 d7 5c bf 3a 55 bb 3e 56 10 95 bf 54 d5 2e bf
       -0.86266917 0.3658846 -1.164561 -0.6829426
0000b0 04 f2 2e 3f 37 3c 16 bf 7a c6 60 bf bf 4c 95 3f
       0.68338037 -0.5868563 -0.8780285 1.1664046
0000c0 bc 87 28 bf a3 10 6b 3e db ec b3 3e da 9d 84 bf
       -0.65832114 0.22955565 0.35141644 -1.0360672
0000d0 b7 82 eb bf 55 32 9e 3e 7a 08 a6 3f 16 de be 3f
       -1.8399266 0.30897775 1.2971337 1.4911525
0000e0 1c 83 56 be ad 8a 75 bf fb c9 63 3f b3 67 2f bf
       -0.20948452 -0.9591473 0.8898007 -0.6851761
0000f0 f0 0a 40 3e bd 27 48 bf 5e 61 c3 be 7c 40 28 be
       0.18754172 -0.78185636 -0.38160223 -0.16430849
000100 02 3e 89 bd d8 82 36 3f e5 36 61 3e 10 74 e1 3e
       -0.0670128 0.712934 0.21993597 0.4403386
000110 b6 d1 53 3f f5 ee 8b bf ee 79 0e 3f dc c9 91 3e
       0.8274187 -1.0932299 0.556548 0.2847432
000120 bb fd 80 be 1a 3c b9 3f 83 23 0b c0 5e a0 96 3e
       -0.2519358 1.4471467 -2.1740425 0.29419225
000130 d4 90 72 bd 24 55 18 bf 71 e7 96 3f 74 d8 44 3f
       -0.05922015 -0.59504914 1.178938 0.7689278
000140 1b 0b 71 3e 7e ed b0 bf 3b 02 dd be ee 77 f0 be
       0.23539393 -1.3822477 -0.43165764 -0.469665
000150 b7 3d 64 be 76 66 f7 be d6 d0 a3 be 78 03 c0 bf
       -0.22289167 -0.4832036 -0.31995267 -1.5001059
000160 9b 07 f8 bf 5b a2 6f 3e c0 78 84 3a 0f 8f 83 3d
       -1.9377321 0.23401777 0.0010106787 0.06423771
000170 66 cb e4 3e 3a 3f eb bf 9f 12 4d bf 25 eb bd be
       0.4468643 -1.837867 -0.8010654 -0.37093464
000180 e4 64 78 3f 8d 14 1a bf 49 27 80 3e f7 9b c5 bd
       0.97028947 -0.6018761 0.25029972 -0.096488886
000190 a6 0e 57 3a 8b cb 71 3f 53 60 40 3f 71 24 30 bf
       0.0008203782 0.94451207 0.7514698 -0.68805605
0001a0 15 84 90 be 12 2b c2 3f 17 40 29 bf e7 91 f0 3e
       -0.2822577 1.5169394 -0.6611342 0.46986315
0001b0 89 78 4b bf 5b 7f bf ba 73 36 c9 3f 18 6b 79 3e
       -0.794808 -0.0014610098 1.5719742 0.2435726
0001c0 ba 3e 95 be e9 b3 10 3f b8 b5 c2 3e d1 40 5a bf
       -0.2914942 0.5652452 0.38029265 -0.8525515
0001d0 7b e0 7e 3f a1 08 be bf a7 67 87 3f 5e 6f a4 bf
       0.9956128 -1.4846383 1.0578507 -1.2846487
0001e0 74 5d a7 3e c5 22 3a 3f 45 dd 5d 3d d2 a5 8d be
       0.32688487 0.72709304 0.054166097 -0.27665573
0001f0 d3 f7 a2 be da 35 b8 3e 6c 66 14 3f 74 64 82 3f
       -0.318297 0.35978585 0.57968783 1.0186906
000200 66 f7 35 bf 30 e1 39 bf d1 76 fb 3d 35 2b 01 3e
       -0.71080625 -0.72609234 0.12278522 0.12614138
000210 05 f3 91 3f 79 84 08 bf b3 d8 b7 3d 79 f6 86 3f
       1.1402289 -0.5332714 0.08976879 1.0543967
000220 0f c2 27 3f 2d 49 88 3f 43 43 0f 3f 91 49 11 be
       0.65530485 1.0647331 0.5596201 -0.1418822
000230 22 6f 16 bf 09 b1 46 3e e9 87 8d 3f 4f f2 10 3f
       -0.58763325 0.19403471 1.1057101 0.56619734
000240 1c 31 bf 3e 17 eb 51 40 1c 1e 9a be 12 e5 0f c0
       0.37342155 3.2799737 -0.30101097 -2.2483563
000250 aa a1 16 bf 1e 72 40 bd 3a 61 b9 be f2 09 13 be
       -0.5884043 -0.04698383 -0.3620699 -0.14359263
000260 78 1b 93 bf ff d4 6a bf e8 72 b4 bf 36 68 50 3f
       -1.1492758 -0.91731256 -1.4097567 0.81409013
000270 10 1c f1 be ce a3 ad 3d 33 ad 39 be c9 e0 ee bd
       -0.47091722 0.08478509 -0.18132477 -0.11663968
000280 82 1b 15 bf 60 98 26 bf f5 97 07 40 67 21 4b be
       -0.582451 -0.65076256 2.1186497 -0.1983696
000290 9b 1d af be 98 26 98 3f ff 2d 70 3e 47 71 f7 be
       -0.34202275 1.1886778 0.23455046 -0.4832861
0002a0 f6 25 03 3f 57 1a ed bd 6e 24 c2 3f 64 d6 1d be
       0.512298 -0.115772896 1.5167367 -0.15413815
0002b0 b5 74 fd 3e af 8b 9e 3f 05 c1 3b c0 89 45 9a be
       0.49503103 1.2386378 -2.933656 -0.30131176
0002c0 5a 7f 4d 3f d5 b7 aa bf 1c 53 48 bf de 15 cf 3e
       0.8027245 -1.3337351 -0.78251815 0.4044637
0002d0 05 4f 2c bf 9c aa e4 be ce bf 4b 3f 63 af 05 3f
       -0.67308074 -0.44661415 0.79589546 0.52220744
0002e0 60 95 c3 3d 98 3f 15 3f a5 c9 8d 3f e7 1e 66 bf
       0.095499754 0.5830016 1.1077162 -0.89890903
0002f0 9e 48 10 bf 37 22 10 bf 2f 59 79 bf 5b 5d 40 bf
       -0.56360805 -0.5630221 -0.9740171 -0.7514245
000300 12 75 51 bf 1d fe 23 3d ad 7c 51 bf 0b 64 99 3e
       -0.8181926 0.040037263 -0.81830865 0.2995914
000310 aa e8 7e be b8 7f 50 bf 4f 78 49 3e 19 ac 5d be
       -0.24893442 -0.81444883 0.196748 -0.21647681
000320 60 ce 8d be 7b 06 ac bf e3 1d fa bf 68 eb 48 bf
       -0.27696514 -1.3439478 -1.9540371 -0.784842
000330 31 1f cc bf f6 46 8a 3e 82 f9 9b bf 6e 6c 23 bf
       -1.5947019 0.27007264 -1.2185519 -0.63837326
000340 eb 8f bf 3d 4e 47 38 bc 01 94 23 bf aa 2e 77 bf
       0.09353622 -0.011247469 -0.6389771 -0.9655558
000350 a0 68 9d 3e de 61 88 bf c2 9c 61 bf bf aa 59 bf
       0.30743885 -1.0654867 -0.8812982 -0.8502616
000360 bf d6 0e be 27 de 67 3d b0 74 1c bf d6 f5 f3 bd
       -0.13949107 0.056608345 -0.6111555 -0.11912124
000370 1b e9 2a 40 e3 d9 3f 40 21 01 ed bf 85 b2 6e bf
       2.6704776 2.9976737 -1.851597 -0.9324115
000380 73 9b 56 bf ee b5 52 40 4d 06 71 3d 6a 80 b5 3e
       -0.83830947 3.292354 0.0588439 0.35449535
000390 9b 5e 93 be 0c 9f f2 3e ac b5 eb 3e 57 3d e1 3e
       -0.28783116 0.47386968 0.46037042 0.4399211
0003a0 46 28 93 bf 09 24 a9 3f ba eb bb 3f 07 99 c7 bf
       -1.1496665 1.3214122 1.4681313 -1.5593575
0003b0 10 b5 45 be c3 4e aa 3f 2a f4 93 3f 2f 28 09 be
       -0.19307351 1.3305286 1.1558888 -0.13394235
0003c0 ea 2d 3d be 6a 09 98 3e 96 5d 27 bf f4 ac b3 3f
       -0.18474546 0.29694682 -0.65377176 1.4037156
0003d0 b4 9b 23 bf 92 56 b6 3c e7 0e 09 c0 c9 57 68 bf
       -0.6390946 0.022258077 -2.1415346 -0.9075895
0003e0 2a 0a 0f 40 8e 77 e6 3c 31 fa 8c 3f 05 35 50 3c
       2.2349954 0.02813318 1.1013852 0.012707953
0003f0 29 92 fd 3d 66 08 53 3d 16 dc da 3e 9c 17 24 40
       0.123813935 0.05152168 0.42746037 2.563941

num_bn.weight f4 [30]
000000 34 f9 84 3f 5a b7 79 3f b9 04 82 3f cb 80 85 3f
       1.0388551 0.975454 1.0157691 1.042993
000010 e1 74 83 3f 7c 76 83 3f a2 eb 8d 3f bd 84 7b 3f
       1.0270044 1.0270534 1.1087534 0.9824942
000020 9d 91 74 3f f6 f9 68 3f 31 99 7e 3f a6 54 80 3f
       0.9553469 0.9100641 0.994525 1.0025833
000030 c0 fc 7f 3f 51 e0 81 3f c2 1f 7e 3f 63 c4 7c 3f
       0.9999504 1.0146581 0.9926721 0.9873716
000040 c0 e5 75 3f 83 e3 84 3f 69 81 79 3f ad c7 77 3f
       0.96053696 1.0381931 0.9746309 0.96789056
000050 c0 fc 7f 3f cc c6 7b 3f c0 fc 7f 3f c0 fc 7f 3f
       0.9999504 0.98350215 0.9999504 0.9999504
000060 2f 93 81 3f ea e7 73 3f c2 79 7f 3f c0 fc 7f 3f
       1.0123042 0.9527575 0.9979516 0.9999504
000070 72 fe 86 3f 34 89 81 3f
       1.05464 1.0119996

num_bn.bias f4 [30]
000000 0c d0 72 3c c8 8c 8f 3c 6e f0 4b 3c c6 ce 0e 3c
       0.01482011 0.017523184 0.01244746 0.008716291
000010 0a 06 fb 39 80 ea 9f 3b e4 a0 12 bb 64 75 c0 3c
       0.0004787895 0.0048802495 -0.002237373 0.023493476
000020 8e df ac 3c 50 61 12 3d 8e 33 f0 3b f3 fa c6 bc
       0.021102693 0.035737336 0.0073303645 -0.024289584
000030 27 bb 98 3b 41 f8 03 bc 33 1c 4f ba 48 65 60 3c
       0.004660982 -0.008054794 -0.00079006254 0.013696022
000040 29 8d 6b bc e2 a2 b0 3c a5 2a f7 39 7c 54 ba 38
       -0.014376917 0.021562044 0.00047143284 8.8849076e-05
000050 1f d6 47 3b 80 5a b0 3b 12 1a f8 3a 53 21 c1 3a
       0.0030492616 0.005381882 0.0018928668 0.0014734663
000060 e4 68 ae bb b1 c8 8c 3c ba e8 9b 3a 32 d1 a0 bb
       -0.0053225625 0.01718554 0.001189492 -0.0049077505
000070 f0 b1 b7 37 75 87 93 bb
       2.1898159e-05 -0.0045022317

num_bn.running_mean f4 [30]
000000 61 7c 8c 40 b3 01 2c 42 a6 ea b0 3f d3 6e 7d 41
       4.390183 43.00166 1.3821609 15.839557
000010 ff 29 9a 3e 2a fc 18 3e 3a 00 02 3f f6 84 64 3e
       0.30110165 0.14939943 0.50781596 0.22316346
000020 a1 31 88 3c a4 a0 fa 3b 56 16 02 3a a4 91 81 3d
       0.016625227 0.0076485444 0.0004962435 0.06326607
000030 00 00 00 00 a6 86 0a 3e c6 8f f1 3d 9e 02 88 39
       0.0 0.13527927 0.11795001 0.0002594189
000040 93 03 92 3d 57 59 83 3d 41 19 6a 3b 49 ae 08 3a
       0.07129588 0.064135246 0.003572062 0.0005213959
000050 00 00 00 00 d1 79 9b 39 00 00 00 00 00 00 00 00
       0.0 0.00029654664 0.0 0.0
000060 03 fb 5c 3f f2 e5 fc 3b f8 e7 a5 38 00 00 00 00
       0.86320513 0.0077178413 7.911021e-05 0.0
000070 ce 53 b1 35 c2 5d 67 38
       1.3211918e-06 5.516201e-05

num_bn.running_var f4 [30]
000000 f3 6d 12 41 15 75 bf 43 55 5a 3d 40 49 d9 8e 42
       9.151843 382.9147 2.9586384 71.424385
000010 04 2a aa 3f cb f6 15 3f 68 42 a3 3f c4 4f 70 3e
       1.3294072 0.585797 1.275464 0.23467928
000020 16 fc a4 3c ff a7 16 3c 7b 06 02 3a 88 a0 9f 3d
       0.020139735 0.009195327 0.0004960072 0.07794291
000030 83 c6 d9 1f 84 a0 1e 3e 28 75 18 3e 0e c1 87 39
       9.2231485e-20 0.1549092 0.14888442 0.00025893043
000040 09 e1 99 3d e1 9f 8b 3d 77 e7 84 3b 54 b4 16 3a
       0.07513625 0.06817604 0.004055913 0.0005748917
000050 83 c6 d9 1f 4a 77 9b 39 83 c6 d9 1f 83 c6 d9 1f
       9.2231485e-20 0.0002965278 9.2231485e-20 9.2231485e-20
000060 f9 51 81 3f 48 0a 01 3c f8 e7 a5 38 83 c6 d9 1f
       1.0103141 0.007875986 7.911021e-05 9.2231485e-20
000070 fd fa b0 35 c2 5d 67 38
       1.3186069e-06 5.516201e-05

mlp.net.0.weight f4 [256, 153]
000000 4d 30 b8 3d 36 df 21 3e 08 63 36 bb 30 87 41 bd
       0.08993588 0.15807804 -0.0027830023 -0.047248065
000010 8b 59 9c bb 5c 7a d8 bc 31 10 3f bd c5 99 69 bd
       -0.0047714165 -0.026425533 -0.0466463 -0.05703141
000020 6c 9b 73 bd b4 04 61 bd 11 4f 48 3d 70 67 7e bc
       -0.059474394 -0.054936126 0.04890353 -0.015527591
000030 f1 1b 71 3d f2 05 cd 3b 9b 34 d4 3d a7 c9 ac bd
       0.058864538 0.0062568123 0.10361596 -0.084369
000040 e3 3e 69 bd 2a 96 9e 3d 8b 03 d2 3c d5 fa e1 3b
       -0.05694474 0.07743485 0.025636455 0.0068963566
000050 95 4d 9a 3c 62 2f b4 bb cb 0a b5 bc 65 ce 00 bc
       0.018835822 -0.0054988125 -0.022099873 -0.007861708
000060 43 15 e2 3d e0 d4 7e 3d 84 6e 63 3d 13 31 c8 ba
       0.110392116 0.062214732 0.055525318 -0.0015273414
000070 5f 8b 8a 3d 2d 39 02 bd 1b 89 66 bc bd fa f3 3b
       0.06764864 -0.03179281 -0.014070774 0.007445662
000080 c2 44 e7 ba 66 21 cf bd 1d b5 91 bd f0 f0 5c 3d
       -0.0017644393 -0.10113792 -0.07114623 0.053940713
000090 f6 5b c8 bc 71 5b 52 bc 27 36 80 bd 09 87 b4 3d
       -0.024457913 -0.012839184 -0.06260329 0.088148184
0000a0 10 c1 01 3d 79 b3 3c 3c bb 47 eb bb 9e 93 bc bd
       0.03167826 0.011517399 -0.007180182 -0.09207843
0000b0 29 0e a3 3c f7 86 d9 bc 08 d2 58 3d 43 68 59 3d
       0.019904213 -0.026553614 0.052934676 0.053077947
0000c0 6e 2c 6d bc be 7f 57 bc 7e 25 30 bd e1 27 76 bd
       -0.014475925 -0.013153015 -0.043004505 -0.060096625
0000d0 3c e3 2f bd 99 fc 31 bd bf 44 2d bd bf d7 97 3c
       -0.042941317 -0.043453787 -0.04230189 0.018535493
0000e0 1a 9d a7 3c 1f 22 70 3d ac 65 b1 3d 81 75 0b bc
       0.020460654 0.05862629 0.086619705 -0.008511902
0000f0 f6 7e 4c bd 9d 51 15 3c b2 8e bf 3d f3 00 80 3d
       -0.049925767 0.009113696 0.09353389 0.06250181
000100 fe a9 cc 3d 2b 52 1c 3d b0 4e 35 3d 15 7e f6 bc
       0.09993361 0.0381643 0.044264495 -0.030089417
000110 cd 5a 67 bc 30 26 d6 bd fe 91 50 bd 29 80 ad bd
       -0.01412077 -0.104565024 -0.05092048 -0.0847171
000120 ae 8e 81 bd 8b e8 fa bb 18 04 f7 bc 92 c1 4a 3d
       -0.06326042 -0.007657116 -0.03015332 0.04950101
000130 10 e5 7d 3d 6f af 12 3e a6 a4 6b bd b2 79 e3 bb
       0.06198603 0.14324735 -0.057530068 -0.0069419974
000140 9b 8b e6 3d c5 dd 36 bc 72 33 69 bd cb 24 3f bd
       0.112570964 -0.011161272 -0.056933828 -0.046665948
000150 a9 ad d6 3d f0 7c 17 bd fd 4b a8 3b 57 8d d7 3c
       0.10482342 -0.036984384 0.0051360116 0.026312513
000160 f6 29 9e 3d a3 27 b5 3c 7b 1d b4 3c c2 6e 2c 39
       0.07722847 0.022113627 0.021986714 0.00016444459
000170 7a ac a2 bc 80 7d 91 3c ab ed 2d bd 1e 8e 14 3c
       -0.019857634 0.017760038 -0.042462986 0.0090670865
000180 09 6b ce bc 7d 70 8f bd 33 0c ca bc 0e 6f 4b bd
       -0.025197523 -0.07003877 -0.02466402 -0.049666457
000190 a2 f5 c9 bb b5 1c 00 3e e0 14 b4 3b 86 0f 86 3d
       -0.006163315 0.12510951 0.0054956526 0.065459296
0001a0 05 20 58 bd 0b 1d 0f bc 46 e9 e5 3c 0a d8 4b 3d
       -0.05276491 -0.008734952 0.028065335 0.049766578
0001b0 90 d3 89 bd 91 88 e5 bc 9f 80 bf bd c5 28 7b 3d
       -0.067298055 -0.028019221 -0.093507044 0.061318178
0001c0 2d d2 b7 bd e8 66 70 bd 34 d2 aa bb f7 4b 18 bd
       -0.08975635 -0.05869189 -0.0052130464 -0.03718182
0001d0 6f 50 57 3d d1 f1 94 bd 41 56 05 bb 56 c5 4d 3d
       0.05256694 -0.07272685 -0.00203456 0.050237022
0001e0 cb a0 24 39 8b 73 91 3d 36 4e 2e 3c 95 fb 97 bd
       0.00015700159 0.07102116 0.010638764 -0.07421032
0001f0 f8 30 07 3d e9 24 fc 3b bb 1c e1 3c 05 23 af 3c
       0.033005685 0.0076948297 0.02747952 0.021379003
000200 ab 3d c9 bd 49 53 71 3d b7 6b e9 bb 1b dd c1 3c
       -0.09826215 0.058917318 -0.0071234363 0.023665002
000210 a0 b2 3c 3d b3 c1 d1 3a 43 dd 90 3d 29 78 03 bd
       0.046068788 0.0016003161 0.07073452 -0.032097016
000220 30 12 14 3d a9 56 ac 3d b5 52 30 bb 00 2b 36 3d
       0.036150157 0.084149666 -0.0026904766 0.0444746
000230 2a 80 00 3d a5 80 ca bd 7f 4e 40 bd 3d 18 8b bc
       0.031372227 -0.09887818 -0.04694986 -0.016979331
000240 b0 4c 37 3d 78 05 7e bc f0 ca e8 bc 7c 64 89 bc
       0.04475087 -0.015504234 -0.02841708 -0.016771547
000250 8e 3b 99 3d 1b 88 4b 3d df 50 8e 3d e7 aa be 3c
       0.07482062 0.049690347 0.06949019 0.023274852
000260 74 ba 32 3d 0b c6 0a bc 13 3f 20 bd 61 7f df 3c
       0.043634847 -0.008470069 -0.039122652 0.027282419
000270 2b 56 ea bb 8d 89 51 3c b6 bd 6a 3d 80 34 2c 3d
       -0.0071513853 0.012789142 0.05730983 0.042042255
000280 b4 c9 08 bd 4e 61 9b 3d 52 7e 08 bc a8 86 2f 3c
       -0.033395484 0.07586919 -0.008330898 0.010713257
000290 5b ca e7 bb b1 b3 95 bd d5 6e aa bb ea 6a 2f 3d
       -0.007073683 -0.07309664 -0.0052012005 0.04282657
0002a0 76 d8 64 bb 55 2f 2b bd 8c e8 e3 bd 11 50 87 3c
       -0.003491906 -0.041793186 -0.11128339 0.01651767
0002b0 30 e5 56 3d 8e b0 87 bc ff 06 0e 3c 62 8b 83 bd
       0.052464664 -0.01656368 0.00866866 -0.064230695
0002c0 62 d7 83 bd 48 ea 67 bd 35 7c 43 3d 05 3d 31 bd
       -0.064375654 -0.056619912 0.047725875 -0.043271083
0002d0 7b f1 40 3a 74 55 d5 3d 6e eb 39 3d 63 0a 19 bc
       0.0007360202 0.104166895 0.04539054 -0.009340855
0002e0 42 5e d8 3d fb 4e fd 3c d8 25 d7 3c 2d 5e 53 bc
       0.10564853 0.03092145 0.026263162 -0.012900871
0002f0 4c 9e 49 3b eb 1a a2 bc 78 d4 9b 3d e8 28 35 bc
       0.0030764518 -0.019788226 0.076088846 -0.011057116
000300 33 b3 3c 3c 51 6a d5 bb a2 fc a4 3c b5 09 78 3d
       0.011517334 -0.006512918 0.020139996 0.060556132
000310 63 81 e5 bc fa 06 51 bd fa d7 43 bd 92 5c fa bb
       -0.028015798 -0.051032044 -0.047813393 -0.00764043
000320 5f e7 92 3c 73 6c 76 bc 45 00 b6 3d 2b 8d 6d 3c
       0.017932592 -0.015040505 0.0888677 0.014498989
000330 ae 20 49 ba d6 c2 11 3d 65 7a b6 bd 8d 0f 9b bd
       -0.0007672411 0.0355862 -0.08910064 -0.075713255
000340 4e 83 fa bc 74 a3 b0 bd fb 1b fc 3a ba e7 73 3d
       -0.03058019 -0.08624926 0.0019234413 0.059547164
000350 a3 71 34 3b 45 0b cc bc 88 77 25 bd 32 c8 a1 bc
       0.0027533553 -0.024907717 -0.040397197 -0.01974878
000360 ae 8b 9b 3c bf 64 09 bc 2f 44 99 bb 7a 9d 2a bc
       0.018987503 -0.008385836 -0.0046773176 -0.010413522
000370 73 66 53 3d b8 a9 3f ba f6 d9 9c 3d 9b 71 65 bd
       0.051611375 -0.0007311362 0.0765876 -0.056016546
000380 e0 7d d4 3d c6 ee 16 bd 13 fa 34 bb 96 5a ba bd
       0.10375571 -0.036848806 -0.0027614876 -0.09099309
000390 a2 a3 71 3d 55 94 ce bb e9 d4 25 3d ea be 70 3d
       0.058993943 -0.0063043036 0.04048625 0.05877582
0003a0 0e 50 28 3d 7f c8 3c bd 6e 1b 7c bd 02 16 56 3d
       0.04109197 -0.046089645 -0.061549596 0.052267082
0003b0 37 16 0f bd b5 94 57 bc 73 a6 33 3d 16 51 42 bd
       -0.034933295 -0.013158013 0.04385991 -0.04744061
0003c0 d6 81 a8 3c c0 5b 80 3d bd 0c cc bc 14 a9 8c bd
       0.020569723 0.062675 -0.024908418 -0.068681866
0003d0 bf ba 51 3b d6 57 2e 3d 0a b1 e1 bc 5b d7 92 3d
       0.0032002178 0.042564236 -0.02755024 0.07169982
0003e0 e6 58 4d bd c0 93 92 bb 93 00 71 bc 11 96 81 3d
       -0.05013361 -0.0044731796 -0.01470961 0.06327451
0003f0 3a 14 db bc 26 6d ab bd d9 43 4b 3d 48 f7 91 3d
       -0.026743043 -0.08370428 0.04962525 0.07127243
